project/trained_custom_cnn.pth (torch, 812042 bytes, 36 tensors)

weight f4 [32, 3, 3, 3]
000000 8e ac 3c be cc 61 23 bc 22 92 12 be 0e 65 83 bd
       -0.184252 -0.009972047 -0.14313558 -0.06415759
000010 73 57 4b be 87 40 4f be 60 6e a6 bb 98 63 3e 3d
       -0.19857578 -0.20239459 -0.0050790757 0.0464817
000020 28 9f 68 3b 87 da 84 bc 75 a4 50 3d 2b de 9a 3d
       0.0035495255 -0.016217483 0.05093809 0.075619064
000030 27 49 21 bd 89 94 02 be 45 5a 48 bd db d0 2b bc
       -0.039376404 -0.12751974 -0.048914213 -0.010486807
000040 58 47 98 bc 68 8e 18 be fa fd c6 3d dc 91 22 be
       -0.018588707 -0.14898074 0.09716411 -0.15875953
000050 02 c7 ce bd 7d ad 3b bd dd 66 a5 3d 17 9c 27 3e
       -0.100965515 -0.04581975 0.0807626 0.16368137
000060 85 86 a5 bb dd 61 db 3d 81 5e 33 3e 83 86 6d bc
       -0.0050514364 0.10712025 0.17516519 -0.014497402
000070 9d 18 01 be 9c a4 b0 bc 34 c7 bd 3d 90 e2 76 bd
       -0.12607045 -0.021562867 0.092665106 -0.06027466
000080 cd bb 89 bd 8a a7 9e bd d4 91 87 3d 3a 3e 17 3e
       -0.06725273 -0.07746799 0.066196114 0.14769831
000090 94 8c 30 3e 9d 1b 05 bd 56 69 f3 bc ab a7 e9 3c
       0.17241126 -0.032497037 -0.029713314 0.028522333
0000a0 8f f2 b5 3d 51 5e 12 be e5 52 b5 bd 5f 8d 92 bc
       0.08884155 -0.14293791 -0.088537015 -0.017889677
0000b0 4a e1 45 3e 16 c2 38 3d e4 21 b5 bd d0 9d f2 3d
       0.19324222 0.04510697 -0.08844355 0.118465066
0000c0 54 a9 45 be 8e ae 30 3e c6 9c 3d be bb f5 e2 3d
       -0.19302875 0.17254087 -0.18516836 0.110820256
0000d0 20 1b 2b be db 16 80 3d ad 69 b1 bd bd ab ce 3d
       -0.16709566 0.06254359 -0.08662734 0.1009135
0000e0 b7 96 e4 3c f9 5e d5 3d 2f 2c 14 3e 47 8a fb bd
       0.027903898 0.10418505 0.1446998 -0.12282234
0000f0 53 7a 46 3d d2 6a 3b 3d 0d ad 8f 3c 31 85 0c be
       0.0484565 0.04575617 0.017538572 -0.13722683
000100 0c 96 cb 3d b1 5f 26 be 3a 53 41 be 97 f4 aa bd
       0.099407285 -0.16247441 -0.18879405 -0.08347433
000110 7f b6 12 3d 40 fb 5a bd 11 31 e3 bd 1c f5 25 bc
       0.035818573 -0.053462267 -0.11093343 -0.010129239
000120 a3 24 65 bd 9e a8 6a bd 02 b8 fe bd 9c d3 06 3d
       -0.055943143 -0.057289712 -0.124374405 0.03291665
000130 79 cb 86 3d 52 11 19 3e 0c 1e 12 3e 16 69 61 3d
       0.06581778 0.14948013 0.14269274 0.05503186
000140 9b 8b 17 be f0 e5 b5 bd 64 8a 30 3e 00 98 52 bd
       -0.14799349 -0.08881748 0.17240292 -0.05141449
000150 2f 8b 08 3e f8 f4 a6 bd 2f b0 08 be 7b f3 e6 bd
       0.13334344 -0.08152193 -0.13348459 -0.11276909
000160 b2 bb 9b 3d b8 f2 da 3a 69 73 0b bc 46 c6 ee bd
       0.076041594 0.0016704416 -0.008511403 -0.116589114
000170 13 ea 21 be e9 ba 37 be 9a a5 ed bb df 76 0f 3e
       -0.15811948 -0.17942394 -0.0072524073 0.1401019
000180 57 6c 30 3e 79 f4 85 3d f9 80 67 bd 7b ff c4 3d
       0.17228828 0.0654077 -0.056519482 0.096190415
000190 da 79 73 bc fd 49 82 bd a5 c4 f6 3d f8 6c dd 3c
       -0.014860595 -0.063617684 0.12049226 0.0270295
0001a0 a2 00 cc 3d 5d 10 23 3e 1f 63 09 bd 44 ad 30 be
       0.09961058 0.15924211 -0.033541795 -0.17253596
0001b0 42 71 1a 3b 40 68 24 3e 9b d4 79 3d 49 86 99 bd
       0.0023566042 0.16055393 0.060993772 -0.07496316
0001c0 1a 31 33 3e 91 13 99 3d aa 09 5b 3d 55 ea 0c 3e
       0.174992 0.07474435 0.053476013 0.13761266
0001d0 b2 9e 60 3d 4e 6e 97 3d 6d ad 96 bd 2d 69 f8 3d
       0.054838844 0.07394086 -0.07357297 0.12129436
0001e0 4d 87 d1 bc ba d0 48 3e f8 f3 2d 3e 58 b8 a4 bc
       -0.025577212 0.19610873 0.16987598 -0.020107433
0001f0 9d 44 25 3e c4 e6 43 3e ea 92 3a 3d 42 fa 68 bc
       0.16139455 0.19130999 0.045550264 -0.014219822
000200 17 ae 85 bc bd 43 25 3e 03 70 f2 3d c0 51 2e 3e
       -0.016318364 0.16139121 0.11837771 0.17023373
000210 14 5d bb bd f8 35 3c 3e 63 53 1b be c9 b1 ab 3c
       -0.091486126 0.18379962 -0.15168528 0.020958798
000220 45 81 ec 3d e4 be 39 3e 25 48 a4 3d 19 68 36 bd
       0.11548094 0.18139225 0.08021573 -0.04453287
000230 39 ea e3 bc 3e a1 47 3e 98 27 5f 3a 5f 22 73 3d
       -0.027821647 0.19495103 0.0008512675 0.05935895
000240 15 87 f7 bd d4 47 58 3d f8 6f 00 be 29 b1 d3 3d
       -0.12086312 0.052802876 -0.12542713 0.10336525
000250 b3 4b 8f 3d e5 22 9e 3c 82 56 29 3e fb 7c 2f 3d
       0.0699686 0.019303748 0.16536906 0.0428438
000260 cf f5 bc 3d 9e cc 05 be 52 25 2a 3e c8 5a bc bd
       0.09226572 -0.13066337 0.16615799 -0.09197003
000270 a6 2c 10 3e c9 68 e5 bd 42 fa 8f 3c 79 97 e6 bd
       0.14079532 -0.11201627 0.017575387 -0.1125936
000280 c4 65 03 3d 8d 8c ab 3d 2e 16 46 3e 27 24 f6 bd
       0.032079473 0.08376417 0.19344398 -0.12018614
000290 d9 75 78 bd c2 c5 ad bd 70 53 4c bd 80 fe ad bd
       -0.060659263 -0.08484985 -0.04988426 -0.08495808
0002a0 5c 36 88 3d 24 f1 85 3d 0d d9 74 3d 60 ac 50 3c
       0.06650993 0.065401345 0.05977731 0.01273641
0002b0 86 b1 22 be 09 40 33 be 17 a9 3f 3e 3e 80 66 3c
       -0.15888032 -0.17504896 0.18716846 0.014068661
0002c0 38 92 20 3d 78 14 d1 bd 95 52 0d 3e e5 6d 1f be
       0.039201945 -0.10208982 0.13801034 -0.15569265
0002d0 0f 8f 1e be 74 ad 78 bd 72 37 e5 3a 65 c7 ac 3d
       -0.1548426 -0.060712293 0.0017487837 0.08436469
0002e0 b4 92 33 be 2d a2 58 3d 48 9b 58 bd cb 1f f4 bd
       -0.17536432 0.052889038 -0.052882463 -0.119201265
0002f0 b6 b4 2c be 54 09 b8 bb 67 b0 90 bd 05 43 66 3d
       -0.16865811 -0.0056163464 -0.07064896 0.05621626
000300 f2 ca a0 3c 28 0b 80 3d d9 a1 1c be b7 93 1f 3e
       0.019628022 0.06252128 -0.15296115 0.15583692
000310 75 e1 d2 3d f7 63 23 3e 62 76 3e 3e 3a 1d a3 3c
       0.10296909 0.15956102 0.18599847 0.019911397
000320 7a 5a 38 be c6 95 32 3e 63 e7 f2 bd 59 a8 4a bd
       -0.18003264 0.17439947 -0.1186054 -0.049476955
000330 3a d2 42 3e 70 35 44 bb 6c 89 15 3e cb 2a 3c be
       0.19025508 -0.0029939078 0.14603204 -0.18375699
000340 19 c6 3c 3e 09 a0 db bd fa 5e 14 be 66 f6 0f 3e
       0.18434943 -0.10723884 -0.14489356 0.14058837
000350 09 e5 53 bd 96 84 08 3e ee 1e e6 bd 61 1f 31 be
       -0.051732097 0.13331828 -0.11236368 -0.17297126
000360 a1 e0 1a 3e 97 8d ac bd 92 3c 43 be b5 3b 31 be
       0.15124752 -0.084254436 -0.19066074 -0.17307933
000370 7e 30 69 3d 88 9c 3c be c3 f2 a4 bc e4 3b 8e 3d
       0.05693101 -0.18419087 -0.020135289 0.06945017
000380 49 b3 1a be 8b e6 96 bc 7e 91 95 3d 0e 2c 02 3d
       -0.15107454 -0.018420478 0.07303141 0.031780295
000390 3a 5e 21 3e 86 a5 04 3e 17 1a 2c 3e 09 92 02 3e
       0.15758601 0.12953767 0.16806827 0.1275102
0003a0 cf a0 29 3d cb fb 41 be 30 c6 f0 3d 26 21 09 3e
       0.041413125 -0.18943708 0.11756551 0.13391551
0003b0 a0 61 29 3e 50 5b 4a bd cd ab 00 3e fa 3f 7f bd
       0.16541147 -0.04940349 0.12565537 -0.062316872
0003c0 e6 e4 10 be 4a 94 b8 bd 60 2a 1c bd bc 9f 31 3e
       -0.14149818 -0.09012659 -0.03812635 0.1734609
0003d0 56 23 ad 3d aa 7c 63 bd 77 0a 73 3b ce 98 fe 3d
       0.084540054 -0.05553881 0.0037085095 0.12431489
0003e0 22 bc 10 3e 21 17 93 bd 24 d7 53 3d a1 21 32 be
       0.14134267 -0.07182146 0.051718846 -0.17395641
0003f0 0f 6f 09 3e da f3 7d bd a0 8c 35 be 51 b3 05 be
       0.13421272 -0.062000133 -0.17729425 -0.13056685

bias f4 [32]
000000 da b5 3a be fd 09 1c be 1d 91 1b 3e 21 86 d8 bd
       -0.18233433 -0.15238185 0.15192075 -0.10572458
000010 d7 7c e4 3b fa 4e 70 3d cf 4a a6 3d 21 b1 dd 3c
       0.00697289 0.058669068 0.08119737 0.027062
000020 3b 69 7d 3d 1e 1c 1f bd c1 c0 31 3e 7f bd 24 bd
       0.061867934 -0.038845174 0.17358686 -0.04021978
000030 33 8b 92 3c 3f 16 18 be dd dd 09 be 8f 8c b8 bd
       0.017888641 -0.14852236 -0.1346354 -0.090111844
000040 53 ea 1d 3e 30 ae 1b be 66 d6 2e bb 58 91 26 3d
       0.15421419 -0.15203166 -0.0026678084 0.040665954
000050 5f b0 eb bc cc 2e f4 bd d1 27 4e bd fe ce 34 3e
       -0.028770624 -0.11922988 -0.05033094 0.17657086
000060 99 09 20 be 80 9c 22 3e d0 f3 27 be 64 e1 96 bd
       -0.15628661 0.15880013 -0.16401601 -0.073672086
000070 e8 be 49 be 3f 88 e2 3d c9 3d 75 bd 0b 7a 36 be
       -0.19701731 0.11061143 -0.059873376 -0.17819993

weight f4 [32]
000000 18 f5 7e 3f 4d b1 7c 3f 51 8f 7f 3f 97 47 7f 3f
       0.99592733 0.9870804 0.9982806 0.9971861
000010 3d ef 7e 3f c5 f3 7e 3f 7b 11 7f 3f 9f 84 7f 3f
       0.995838 0.9959071 0.9963605 0.9981174
000020 c9 9a 80 3f 96 e7 83 3f f4 7b 80 3f 6c 5d 7e 3f
       1.0047237 1.030505 1.0037827 0.993613
000030 c4 ad 80 3f 21 78 80 3f 9c 90 7d 3f ae d9 7f 3f
       1.0053029 1.003666 0.9904878 0.9994153
000040 17 d2 7e 3f a4 23 80 3f 69 7d 7d 3f ca 2d 80 3f
       0.9953932 1.0010877 0.99019486 1.0013974
000050 17 b8 7e 3f 89 db 7f 3f 58 bf 80 3f 17 2e 7f 3f
       0.9949965 0.9994436 1.0058393 0.996797
000060 46 c1 7d 3f c0 55 80 3f e7 9d 7f 3f b0 f5 7f 3f
       0.99123037 1.0026169 0.99850315 0.99984264
000070 97 dc 80 3f 10 a0 80 3f 88 fb 80 3f 87 d5 7d 3f
       1.0067319 1.0048847 1.0076761 0.9915394

bias f4 [32]
000000 be 10 19 3a 02 ff 47 3c 8f c1 61 39 fe 75 3b 3c
       0.00058389816 0.012206795 0.00021529778 0.011441706
000010 0a 7b 3f bb d1 e3 14 bc a9 b0 57 3a 85 32 15 3b
       -0.0029217624 -0.009087519 0.00082279235 0.0022765708
000020 4c b0 d6 3b f9 04 41 3d 52 de 53 bb 79 7c 07 3c
       0.006551778 0.047123883 -0.0032328558 0.008269423
000030 1b a3 0f bc a4 47 5c bc dd 48 57 bc f4 33 0d 3d
       -0.008766915 -0.013444815 -0.013139931 0.034473374
000040 8e 3e 46 3b bc 0d fb 3c 6d 9e 4e bc 15 bc d7 3c
       0.0030249688 0.030646197 -0.012611014 0.026334802
000050 be 1d 05 3b bb 48 67 3c c8 20 42 3c 45 64 1b 3b
       0.0020311917 0.014116461 0.011848636 0.0023710888
000060 b4 36 26 bc 20 d1 47 3c 4c 43 c4 3b 75 6f f0 bb
       -0.010144878 0.012195855 0.0059894677 -0.0073375055
000070 0f e9 38 3b 1b d7 10 bc 1d 3f 31 3c 17 fb 70 3b
       0.0028215086 -0.008840348 0.01081827 0.0036770755

running_mean f4 [32]
000000 89 90 41 bf 5c 72 44 be 13 dc 61 3e b7 d7 0e be
       -0.7561117 -0.1918425 0.22056608 -0.13949476
000010 db 0e 62 3f 76 19 1a 3f 70 46 42 be b7 23 91 3e
       0.8830392 0.601951 -0.18972182 0.2834756
000020 c1 df 1a be ca 8d 10 3e a6 b6 22 3f db 0e 86 3c
       -0.15124418 0.14116588 0.6355995 0.016364506
000030 de cd 05 be 36 b5 9a 3d 78 86 c6 be c5 95 44 3d
       -0.13066813 0.075540945 -0.38774467 0.047994394
000040 22 d0 3c be 78 06 cd bd 97 7e e0 3e 50 c4 16 3e
       -0.18438771 -0.100109994 0.4384658 0.14723325
000050 e6 70 e0 be f2 f9 e7 3d e8 92 ef bc 54 86 bf 3e
       -0.43836135 0.1132697 -0.029244855 0.37407172
000060 2d 07 00 bf 83 9c 37 3d 43 47 07 3e ad b6 ee bd
       -0.5001095 0.044826996 0.13210778 -0.116559364
000070 71 a4 af bc f3 55 8f bd a3 ea 57 bd 22 2d b5 be
       -0.021440716 -0.069988154 -0.052714 -0.35385996

running_var f4 [32]
000000 98 31 25 3f 9f ab 20 3c 2b b8 cc 3d fa af e3 3c
       0.645288 0.009806543 0.09996065 0.027793873
000010 7c 2b 53 40 7f 25 48 3f a3 b1 29 3f dc 93 60 3e
       3.299529 0.78182214 0.6628668 0.21931404
000020 f7 bd 04 3e 9c f2 af 3d 58 c3 8d 3e d3 0c 62 3c
       0.12963091 0.08591196 0.27688098 0.013797003
000030 0d f1 04 3e f9 30 e6 3d 9d 93 49 3f 97 9a 16 3d
       0.12982579 0.112398095 0.78740865 0.036768522
000040 99 a6 f0 3e 07 0d d3 3c 92 d7 86 3e 84 9c 52 3d
       0.47002104 0.025763048 0.26336342 0.051418796
000050 e9 a1 80 3e 7b f7 67 3e 01 10 86 3d 39 25 7e 3d
       0.25123528 0.22653 0.06546021 0.062047217
000060 fc 11 81 3e ba 45 57 3e 22 7c da 3e 17 67 60 3e
       0.25209033 0.21022692 0.4267283 0.21914326
000070 26 eb 32 3d df e7 3e 3e b8 d1 ef 3b e3 c1 e8 3d
       0.043681286 0.1864314 0.0073187016 0.11365106

weight f4 [64, 32, 3, 3]
000000 18 fa ac 3c 23 a5 c7 3c 4f e9 2a 3c 03 7f 6d bd
       0.021115348 0.024370736 0.010431602 -0.057982456
000010 de 0c e1 ba 2c 7a 3d 3c c0 54 2c 3d da 1a 8c bb
       -0.0017169972 0.011564773 0.04207301 -0.004275662
000020 3b 6d d8 bc 9f 90 45 3d bb bd 3d 3d d4 d7 0b bd
       -0.026419273 0.048233625 0.04632352 -0.034141377
000030 3d 1f 8a 3d 89 75 b4 3b 98 0d 68 bc bb 2c fc 3c
       0.067442395 0.0055071753 -0.014163397 0.030783048
000040 23 11 28 3d d6 27 3e bd 85 c8 5a bd cb d4 92 bb
       0.041031968 -0.04642471 -0.053413887 -0.0044809333
000050 7e 05 54 bd 60 c9 52 3d 9f 1c 3f 3d 07 d6 2b 3d
       -0.05176305 0.051461577 0.046658155 0.04195216
000060 de ee 91 bc 29 2f 6d bc d0 43 b3 3c 68 2c 10 3d
       -0.017814096 -0.014476576 0.021882921 0.0351986
000070 cc 0d 36 3d 47 d8 3d bc 3c d8 4e 3d f9 d0 ce 3c
       0.04444675 -0.011587209 0.050499186 0.02524613
000080 8c 43 8b bc 28 82 49 bd 0f 74 03 3d f3 59 b4 3a
       -0.016999982 -0.049196392 0.032093104 0.0013759717
000090 cf 76 20 bd 3b ef 2d bd 73 f5 8c 3b 3e 87 42 3d
       -0.039175805 -0.042464476 0.0043017208 0.04749226
0000a0 71 75 8d 3c 78 0c 78 bb ec 88 2f bb ab be c2 bb
       0.017267914 -0.0037849229 -0.0026784493 -0.0059431395
0000b0 31 5d 9d 3a fd 8a 5d 3d d7 1d 31 bd 7d 15 09 bc
       0.0012005923 0.054087628 -0.043241348 -0.00836694
0000c0 cd ed 87 3c 6a 9a e9 3b 31 ad 46 bd 78 85 18 bd
       0.016592884 0.0071290033 -0.048505012 -0.03723666
0000d0 09 72 29 bc aa c3 40 bc 61 b8 d8 3c 58 75 89 3c
       -0.0103421295 -0.0117654 0.026455106 0.016779587
0000e0 2d a3 5d 3d 99 75 ea bc 57 3f 2b bd 92 06 09 3d
       0.054110695 -0.028620528 -0.041808452 0.03345353
0000f0 e9 1a d2 3c fe 7f 20 3d 3c b7 3a bd 56 32 24 bd
       0.025647597 0.039184563 -0.045584902 -0.040087067
000100 4e 12 11 bc de 3a 5e 3c d5 77 30 3d 1d 17 3f bd
       -0.008854462 0.01356384 0.04308303 -0.046652902
000110 26 c9 3a 3d a2 46 e0 bb 46 68 4a 3d 9a 86 c7 3b
       0.045601986 -0.0068443576 0.04941585 0.006089044
000120 38 3f 44 bb 25 67 e4 3c 78 b4 30 3d 18 d3 1c 3d
       -0.0029944908 0.027881214 0.04314086 0.038287252
000130 7a 3e 62 3d 78 11 57 3d 4d 45 0d bd d8 be ef 3b
       0.055235364 0.052506894 -0.03448992 0.0073164515
000140 ca 6e e5 bb 3d 39 0a bd 90 b6 e3 bc 4f d5 32 bd
       -0.0070017325 -0.033745993 -0.027797014 -0.04366046
000150 c3 09 e7 bc 18 d9 86 3d 1e 8b 3b 3d eb 3b 89 bc
       -0.028202897 0.06584376 0.04578697 -0.016752204
000160 98 6e 9a 3d e2 15 52 3d 9b 1c 2d bc 42 a0 62 bd
       0.07540625 0.0512904 -0.010565902 -0.055328615
000170 9a 29 9b bc 73 8d 04 bd d3 cf aa 3b 3b 18 b6 bc
       -0.018940736 -0.03236146 0.005212763 -0.02222835
000180 51 d2 5e bc 35 c8 6c bc 7c 4c b3 bc f3 22 15 3c
       -0.013599948 -0.01445203 -0.021887057 0.009102571
000190 e9 02 86 bd 40 7e fb bc 46 3c 0a 3c 92 3c 13 3d
       -0.06543524 -0.03069985 0.008437222 0.035946436
0001a0 a3 a9 79 bd 9f 65 5f 3d 89 a5 f0 3c 34 c8 d8 bc
       -0.060952794 0.054540273 0.029375808 -0.026462652
0001b0 2f 5a 2e 3d a6 f0 0f 3d 2d 6f e3 bc 39 08 36 bd
       0.042566475 0.03514161 -0.027762974 -0.044441435
0001c0 76 41 28 bd 3a f1 b5 bc c9 4c cb 3c 4b 2b bb bb
       -0.041078053 -0.022209752 0.024816887 -0.005711948
0001d0 35 11 cc 3c 1b 76 1d bd 5e f4 6e b9 57 c4 cd bc
       0.024910549 -0.038442712 -0.00022788483 -0.025118036
0001e0 59 be d1 bc 88 5f 80 bd ea 5b 2c bc da b6 0a 3d
       -0.02560346 -0.06268221 -0.010519961 0.033865787
0001f0 ae 03 41 3d 34 c7 66 bd 4b 61 a7 3c e6 86 82 3c
       0.04712265 -0.05634232 0.020432135 0.015933465
000200 f3 cd f5 bc 27 36 02 3d f9 d3 06 3b 99 9a 15 bd
       -0.03000543 0.031789925 0.0020573123 -0.03652439
000210 c0 32 11 3d 27 87 4c bc 26 f1 03 bd 2d a5 76 bd
       0.03544879 -0.012483395 -0.0322124 -0.060216118
000220 3a ee e7 3c cc d1 8c bc 76 f5 4a 3d 3c 84 65 bd
       0.028311837 -0.017189883 0.049550496 -0.05603431
000230 10 4b ab bb 9b fc 23 bd 45 fa bc 3c 81 6c f4 3c
       -0.005227454 -0.040035825 0.023068557 0.029836895
000240 20 cb 3e bd 7e 89 d6 bc c4 a5 ef bc d6 64 04 bc
       -0.046580434 -0.026188608 -0.029253848 -0.008080682
000250 0f 94 49 3b a3 5b 56 bc 41 2d 54 3d 58 27 59 bd
       0.0030758416 -0.013083371 0.05180097 -0.053016037
000260 cf 1e 80 3c 0c be db 3b 7c c4 40 3d c2 7b 5e bc
       0.01563969 0.006706005 0.047062382 -0.013579311
000270 7d f8 8e 3b 13 de 60 3d 2e 9c 59 bd ab de c7 bc
       0.004363118 0.054899286 -0.05312746 -0.024398169
000280 61 d0 c3 bc 93 7c 2f 3d c3 3a e0 3c 7e bd 13 bd
       -0.023903074 0.042843413 0.02737177 -0.036069386
000290 50 1b 16 3d 4c e6 45 3d 6b 92 6c 3d 08 45 6f bd
       0.03664714 0.04831533 0.057756823 -0.058415443
0002a0 ce da c6 bc 2b 59 be bc 2e f6 3c bc bd 19 87 bc
       -0.024274256 -0.023235878 -0.011533303 -0.016491765
0002b0 f4 87 52 3d 02 12 00 bd de 64 3d bd 94 16 d6 3b
       0.051399186 -0.031267174 -0.046238773 0.0065334532
0002c0 7a e0 0b 3b 7e f8 38 3d f4 db 08 bd 3e 66 6a bc
       0.0021343515 0.045158856 -0.03341289 -0.014306603
0002d0 86 85 32 bd e1 6f 33 bc ab 01 e6 3c 3b 09 18 3d
       -0.04358437 -0.010951967 0.028076967 0.037118178
0002e0 74 87 42 bd ab 4b f5 bc d2 c9 77 3c cd c7 97 3b
       -0.04749246 -0.029943308 0.015123801 0.0046319724
0002f0 1c a4 79 bd 78 35 06 bd 31 ca 04 bd 31 40 68 3c
       -0.060947523 -0.032765836 -0.032419387 0.014175461
000300 a7 28 c7 bc e1 0b 17 3d e4 87 34 bd f6 74 01 bd
       -0.024311377 0.036876563 -0.044074908 -0.031605683
000310 90 a6 85 3d 67 fc 50 3d d2 14 89 bc 72 e2 5d 3d
       0.0652591 0.05102196 -0.01673356 0.054171033
000320 8c c4 58 3d bc ae 63 3d 6c a2 09 3d 55 0c 2a 3d
       0.052921817 0.05558656 0.033602163 0.041515667
000330 0d 6a 2a 3d 2b 33 32 3d e0 7a a0 bc c4 9f 01 3b
       0.041605044 0.04350583 -0.019589841 0.0019779066
000340 5f e5 40 bd 69 55 17 bd 5a 52 69 3c 4f 7f 6e bd
       -0.047093745 -0.036946688 0.014240826 -0.05822688
000350 38 0f 04 bd c6 a6 64 bc 03 27 84 3c a5 71 95 3b
       -0.032241076 -0.0139557775 0.016131883 0.0045606666
000360 4b 57 25 bd 3a 10 43 bd a2 7c ac bc 19 59 9d bc
       -0.040366452 -0.047622897 -0.021055523 -0.019207524
000370 6a 0a a3 bc a4 1d 38 3d 6b d0 24 3d 90 c5 09 bd
       -0.019902427 0.044950143 0.040237825 -0.033635676
000380 c9 0e 4e bd 59 d0 51 bd 34 71 59 bd 56 43 36 3d
       -0.05030707 -0.051224086 -0.053086475 0.04449781
000390 42 58 d0 3b db ff 6c bc 87 5f b7 3c 08 ba b6 3c
       0.0063581774 -0.014465298 0.022384418 0.022305503
0003a0 0d f5 0e bd 0f 9e 8a 3c f6 c1 01 3d e8 b4 a3 bc
       -0.034901667 0.016921071 0.031679116 -0.019983724
0003b0 b6 e7 1f 3d d2 2f 2a 3d 32 d3 30 3b 9d 68 f1 3b
       0.039039336 0.04154951 0.002698135 0.007367207
0003c0 15 07 e8 3a 16 01 6c 3d 64 11 02 3d e8 62 9a 3c
       0.0017702306 0.057618223 0.031754866 0.01884599
0003d0 b1 7e b0 ba 25 9f 5b bd 4c 12 69 3d 8a 28 b1 bc
       -0.0013465491 -0.05361857 0.056902215 -0.021625776
0003e0 0e 00 89 bc e7 8e 19 bd 4d 7b 22 bd ec 0a a3 bc
       -0.016723659 -0.037489798 -0.03966837 -0.019902669
0003f0 c6 f6 5f bc 5f fc 86 bd 83 41 51 bd b7 d2 30 3d
       -0.013669675 -0.06591105 -0.051087867 0.043169703

bias f4 [64]
000000 41 e2 62 bb 00 31 37 3d c3 22 71 3c aa e0 d3 bc
       -0.003461972 0.044724464 0.0147177605 -0.025863964
000010 03 fa 6f bd b2 56 1d bd fb 1b 52 bd 80 43 0b bd
       -0.05858804 -0.038412757 -0.051296216 -0.03399992
000020 d1 f8 0d bd ba f9 d8 bc d8 08 57 3c 85 28 57 bd
       -0.034661118 -0.026486266 0.013124667 -0.052528877
000030 68 b5 19 3c 75 5f 38 bd 1f 12 c5 bc 28 e4 42 3d
       0.0093816295 -0.04501291 -0.024056492 0.047580868
000040 28 5f 02 bd 9a f6 dd 39 65 d0 12 bd b3 87 87 3b
       -0.03182903 0.00042336137 -0.03584327 0.0041360497
000050 27 bf 08 3d 8a f9 ae bb 26 78 4a bd a7 ef 2c 3d
       0.033385422 -0.005339806 -0.04943099 0.042220738
000060 35 6f 88 bb 81 75 30 3d ac 94 5d 3c c1 0d ad ba
       -0.0041636475 0.04308081 0.013524216 -0.0013202952
000070 4b a4 ee bb 43 69 02 3d 59 64 0d 3d 96 83 72 bd
       -0.007282769 0.031838667 0.034519527 -0.05920752
000080 e5 20 0d bd 69 be 7e bb 4d d3 80 bc 1a 27 63 3c
       -0.0344552 -0.0038870818 -0.015725756 0.013864303
000090 0a 82 2d bc 59 53 98 3a 4b 12 67 3d ef a3 14 3d
       -0.010590086 0.0011621519 0.05641393 0.03628915
0000a0 a3 ca af 3c 5d a5 14 bd 8f f8 1c 3c 37 3f f3 3c
       0.02145893 -0.036290515 0.009580745 0.02969323
0000b0 60 3e f7 bc c1 93 0e 3d 1e b1 0c bd d1 66 20 3c
       -0.03018111 0.034808878 -0.0343486 0.009790138
0000c0 f0 d8 97 bc 76 62 32 bd a3 19 87 bc 58 f3 51 3d
       -0.018536061 -0.04355093 -0.016491717 0.05125746
0000d0 6a 97 60 3c 73 e8 49 3d 4a 39 75 3d b5 d1 f8 bc
       0.013707975 0.049293946 0.05986909 -0.030373434
0000e0 48 14 48 3d 74 33 06 3d df c6 19 bc 10 51 7c bd
       0.048847467 0.032763913 -0.0093857935 -0.061600745
0000f0 92 51 45 3d c1 39 39 bc 9f ae b9 3c 6d a8 3b 3d
       0.048173495 -0.0113052735 0.022666274 0.04581492

weight f4 [64]
000000 f4 8b 80 3f ec 95 81 3f cf 70 7e 3f fe 9f 7f 3f
       1.004271 1.0123878 0.9939088 0.99853504
000010 37 80 7f 3f 02 2f 7e 3f f3 09 80 3f e4 62 80 3f
       0.99805015 0.9929048 1.0003036 1.0030179
000020 fa 9a 7e 3f 33 6c 7f 3f 3d bc 80 3f 26 3d 7d 3f
       0.99455225 0.99774474 1.0057446 0.9892143
000030 ec 35 80 3f 89 a9 7f 3f ba 7e 7f 3f 2a 9c 7f 3f
       1.0016456 0.99868065 0.99802744 0.9984766
000040 4b 53 81 3f f9 2b 80 3f 3f 00 7d 3f 9b ec 7e 3f
       1.0103544 1.0013419 0.988285 0.9957978
000050 f5 3c 81 3f c9 7f 7c 3f 49 af 7e 3f 66 76 81 3f
       1.0096728 0.98632485 0.99486214 1.0114257
000060 79 87 80 3f 81 2b 7d 3f 10 72 82 3f e1 cc 80 3f
       1.0041343 0.98894507 1.0191059 1.0062524
000070 d3 5f 80 3f 19 32 81 3f 31 5f 7f 3f d4 9c 82 3f
       1.0029243 1.0093414 0.99754626 1.020411
000080 40 40 7d 3f 56 79 7f 3f 6b 1b 81 3f 56 5a 7f 3f
       0.9892616 0.9979452 1.0086492 0.99747217
000090 da 03 81 3f f6 90 7e 3f 55 1d 80 3f 68 a1 80 3f
       1.00793 0.9943994 1.0008951 1.0049257
0000a0 fc 89 80 3f b6 ef 7c 3f a8 3d 7f 3f 37 c5 7f 3f
       1.004211 0.9880327 0.99703455 0.999103
0000b0 47 b8 7e 3f 90 60 7f 3f 2c b0 7d 3f 19 d8 80 3f
       0.99499935 0.9975672 0.9909694 1.0065948
0000c0 da 5d 7f 3f 2f 78 7f 3f 58 7f 7e 3f da ee 7f 3f
       0.9975258 0.9979276 0.9941306 0.99973834
0000d0 b6 41 7f 3f e0 5f 7f 3f e5 2a 7f 3f a0 ec 80 3f
       0.9970964 0.9975567 0.99674827 1.0072212
0000e0 10 cb 7d 3f 6b 47 80 3f 61 1e 7f 3f 66 8f 81 3f
       0.99137974 1.0021795 0.9965573 1.0121887
0000f0 33 75 7f 3f 8b e6 7c 3f 59 fc 80 3f 33 42 7f 3f
       0.99788207 0.9878928 1.007701 0.99710387

bias f4 [64]
000000 de 39 be bb fb 81 55 bc be f0 98 bb dd 3a 47 39
       -0.005805238 -0.013031478 -0.0046673706 0.00019000047
000010 2d 56 27 bc 14 de af bb 81 92 ce 39 33 1c 25 3c
       -0.010213417 -0.00536705 0.00039400536 0.010077524
000020 88 ca ea bb 1a a5 1a bc 4c f1 38 3c 93 b5 9e bc
       -0.007165257 -0.009438777 0.011287998 -0.01937369
000030 fe 45 f6 b8 3a 27 84 bc c0 b9 32 bc 59 7a 4c 3b
       -0.00011743231 -0.016131986 -0.010908544 0.0031200855
000040 ec eb 04 3c 05 e9 f9 ba 4c 96 80 ba a1 d9 f8 bb
       0.008112889 -0.0019066638 -0.0009810417 -0.0075943028
000050 c2 bb 56 bb b8 1f ea ba c6 8e 75 39 0e 8b 4a bc
       -0.003276572 -0.0017862236 0.00023418208 -0.012362255
000060 4c 2c 46 bc c9 41 a6 bb 88 4d 2f 3b b7 a0 18 3a
       -0.012095522 -0.00507376 0.0026749093 0.0005822288
000070 12 a4 5f ba 43 44 e1 3b 89 ab 05 bb 4e b0 ab bc
       -0.0008531223 0.0068745925 -0.0020396432 -0.020958092
000080 dc 9d b0 bb 9b 4a 40 bc 64 16 85 3a 58 2d 82 3b
       -0.005389912 -0.011736537 0.0010153768 0.0039726906
000090 6a 8a 20 bc 36 0c 72 bb 6c 1c 38 3b aa 6c 7c bc
       -0.0097986255 -0.0036933548 0.0028093113 -0.015406767
0000a0 6f 9c cf bb 96 48 1b bc d3 90 3c bc fc d9 a0 3c
       -0.006335787 -0.009477755 -0.011509138 0.019635193
0000b0 01 31 44 bc 13 f5 86 bc 45 68 6f ba ad e8 14 ba
       -0.011974574 -0.016474282 -0.0009132664 -0.00056804233
0000c0 e5 4d 3c bc 8d 98 18 bb 6d 58 28 bb 2f a8 a1 bb
       -0.011493181 -0.0023284287 -0.0025687471 -0.004933379
0000d0 b4 ca ad 3b af 49 d6 3a 89 81 d6 bb a7 be 2e bc
       0.005303705 0.0016348864 -0.0065462035 -0.010665572
0000e0 01 5f ca 3b 1b 17 4e 39 d3 3f 63 bc 36 01 3b bc
       0.006175876 0.00019654298 -0.013870197 -0.011413863
0000f0 9a 6e 51 bb 4e 6c fc bb 3b d5 c7 3b 54 45 48 3b
       -0.0031956793 -0.0077033406 0.006098417 0.00305589

running_mean f4 [64]
000000 21 3d ff bd b8 00 49 bf a1 e0 8a bd 8c 32 6a 3c
       -0.12462831 -0.7851672 -0.06781126 0.014294278
000010 2a 47 bf be 9b 90 2f 3f ce a2 8f be 97 33 8d bd
       -0.3735898 0.68580025 -0.28053898 -0.068946056
000020 53 4c 88 3d 00 79 4d be 92 f9 67 3d 59 33 2e 3e
       0.06655183 -0.20065689 0.056634493 0.17011775
000030 53 b2 ca be 51 75 a8 3d d4 87 72 3f fb 0f 7d be
       -0.39589176 0.08225501 0.9473851 -0.24713127
000040 2b c3 5f be e9 08 19 be 01 b5 dc 3e ae 93 58 3e
       -0.21851794 -0.14944805 0.43106845 0.21150085
000050 13 c1 1e 3c 5e 9a 64 be c4 07 5e be 28 51 c6 be
       0.009689587 -0.22324511 -0.2168265 -0.38733792
000060 21 33 3c 3f f5 2a 09 bf 05 dd 00 bf 70 66 ff be
       0.73515517 -0.5358117 -0.5033725 -0.4988284
000070 d1 6d af be 24 f7 af bd bb 75 02 3e b9 ae 03 bf
       -0.3426347 -0.0859206 0.12740223 -0.5143848
000080 95 1e 1f be 72 da 8e be 2d 06 0a be d0 99 07 3f
       -0.1553901 -0.27901036 -0.13478918 0.52969074
000090 88 7a 62 be f9 f6 21 3e 7f 15 6f 3e 38 d9 a0 be
       -0.22117054 0.15816869 0.23348044 -0.31415725
0000a0 b9 cd ab 3e 8d 61 a4 bd 96 29 68 3e 3e a0 ef bd
       0.3355539 -0.08026419 0.22672114 -0.11700486
0000b0 66 92 9d be 62 df 86 3e 32 93 98 3e 2c b0 9d bd
       -0.30775756 0.26342303 0.297998 -0.07699618
0000c0 5c 75 44 3e 9c d3 81 3f 9c eb 30 bf 81 88 ae 3e
       0.19185394 1.0142703 -0.6910951 0.3408852
0000d0 b5 80 94 be d4 10 d7 be 2c 80 7a 3c 56 fd 18 3e
       -0.29004446 -0.42005026 0.015289348 0.1494039
0000e0 36 df bf be 84 d0 9a be 13 57 a1 be 6f 7e 2f bf
       -0.37474984 -0.3023721 -0.31511745 -0.685523
0000f0 2d c7 2b 3f 99 38 ef bd f2 01 57 3e d3 8f 7d bd
       0.67100793 -0.11680717 0.20996836 -0.06190474

running_var f4 [64]
000000 8d 54 4b 3e ce 25 13 3f 2a 5b 64 3e 49 b0 42 3e
       0.19856472 0.5747956 0.22300401 0.1901256
000010 f0 1d 16 3e 37 fb 44 3f cb f3 42 3e 25 ce 25 3e
       0.14659858 0.76945823 0.19038312 0.16191919
000020 88 a6 67 3e 75 6d 1a 3e 6d 25 10 3e c0 58 80 3e
       0.2262212 0.15080817 0.14076777 0.2506771
000030 ab 65 5b 3e fc da 54 3e bd 47 cc 3e 28 78 83 3e
       0.21425502 0.20786661 0.39898482 0.2567761
000040 86 79 2d 3e 51 36 bc 3d 19 75 af 3e 50 2f 69 3e
       0.16940889 0.091900475 0.34269026 0.22771955
000050 b8 2d 28 3e c3 69 30 3e 5d bb a7 3e 4c 8b 87 3e
       0.1642369 0.17227845 0.32760134 0.26473463
000060 9f a2 8b 3e 04 d3 86 3e c9 a3 88 3e 30 ef 9d 3e
       0.27272508 0.26332867 0.26687458 0.30846548
000070 bd e6 7f 3e 07 67 e6 3d c5 95 22 3e 84 41 a3 3e
       0.24990363 0.1125012 0.15877445 0.31885922
000080 1e a9 db 3e 30 ad 52 3e d4 89 24 3e 86 d8 4f 3e
       0.42902464 0.20573878 0.16068202 0.20297441
000090 73 bf 3d 3e 3a b4 06 3e ef 9d a2 3e d6 31 31 3e
       0.18530063 0.13154688 0.3176112 0.17304167
0000a0 18 e3 45 3e af 89 22 3e ba be 43 3f 66 22 26 3e
       0.1932491 0.15872835 0.764629 0.1622406
0000b0 b0 81 a9 3e 5d 38 91 3e 93 76 9c 3e f4 c5 11 3e
       0.33106756 0.28363314 0.30559215 0.1423567
0000c0 8d 8d 42 3e 29 25 f8 3e e6 b3 80 3e 17 18 88 3e
       0.1899931 0.4846585 0.25137252 0.2658088
0000d0 0c 51 97 3e c5 88 65 3e c8 0c 2c 3e 0c 44 87 3e
       0.2955402 0.22415455 0.1680175 0.26419103
0000e0 08 e8 1c 3e 41 84 93 3e 9e ba 59 3e 73 86 22 3f
       0.15322888 0.2881184 0.21262595 0.63486403
0000f0 18 e1 c0 3e b1 d5 3f 3f 90 b1 6e 3e dc f6 29 3e
       0.37671733 0.7493544 0.23309922 0.16598076

weight f4 [128, 64, 3, 3]
000000 cd e5 01 3d bb 1f cf bc c7 b1 dc 3c cc e4 df 3b
       0.031713296 -0.025283685 0.02694024 0.0068326946
000010 fe 12 8d bc 9c aa 00 bd c3 f1 01 bd f4 4e 18 bd
       -0.01722097 -0.031412706 -0.031724703 -0.03718467
000020 7e 57 1e bd d4 e0 9e bc 25 04 81 bc 2e b6 26 3d
       -0.038657658 -0.019394316 -0.015749047 0.040701084
000030 5c 44 d7 3c f0 00 8b bb b9 18 c2 3c 5f 1e ae bc
       0.026277713 -0.004242055 0.02369343 -0.021254716
000040 6b e6 3e bd c1 42 a1 bc da 2e da 3c 7c 23 ff 3c
       -0.046606462 -0.019685151 0.026633669 0.03114485
000050 0f 06 bb 3c cb 53 e2 bb 06 d3 01 bd 65 39 24 bd
       0.022830037 -0.0069069616 -0.03169539 -0.0400938
000060 d4 92 dd 3a cd 41 04 3c 12 78 e7 bb 23 12 f1 3c
       0.001690472 0.008072329 -0.007063874 0.029427594
000070 67 17 34 bc e5 d2 c4 bc 8a 6f e1 3c 1b d7 31 3d
       -0.010991908 -0.024026344 0.027519006 0.04341803
000080 39 9f 1e 3d 09 25 c2 3c 9f 42 93 bc 16 b7 a7 bc
       0.038726065 0.0236993 -0.017976103 -0.020473044
000090 db fe c2 3c ec 66 0e 3c ec ba 15 3c cb e6 ca 3c
       0.023803165 0.008691531 0.009138804 0.024768254
0000a0 95 72 86 bb 50 36 87 3c 40 8c 60 bc bc 0a 3d 3d
       -0.0041030147 0.01650539 -0.013705313 0.046152815
0000b0 0b ef de bc 95 44 39 bb 55 e2 0b bd 1d 0f d0 bc
       -0.027213594 -0.0028269638 -0.034151394 -0.025397832
0000c0 d7 ec 2e 3c 1f fa 13 3c 81 00 7d bc f4 79 b8 3c
       0.010676584 0.0090318015 -0.015442015 0.02251909
0000d0 ff f4 cf 3c ac a8 05 bd fa 96 bb bb dd 55 d7 ba
       0.025385378 -0.03263156 -0.005724785 -0.0016428787
0000e0 e9 e4 b5 3c 16 c0 24 3d f8 ba 18 3b b5 30 15 bd
       0.02220388 0.04022225 0.0023304801 -0.036423404
0000f0 bd 30 03 bc f7 a4 e3 bc 6e b3 14 bd d6 ff 93 3c
       -0.008007226 -0.027788622 -0.03630393 0.018066328
000100 66 ce 18 bd 41 a9 88 3b 12 a8 25 3d 75 99 94 3b
       -0.037306212 0.0041705673 0.040443487 0.004534895
000110 eb 76 08 3d f6 c0 01 3c 2f 5e 14 bc d9 13 0a 3c
       0.033316534 0.007919541 -0.009055658 0.008427584
000120 7b bc 55 bc 02 62 c1 b9 e0 a3 e0 3c 2b ee 15 bd
       -0.0130454255 -0.0003688485 0.027421892 -0.036604088
000130 3e d6 cd 3c ed a0 c8 bc 94 2b bf 3c a4 34 2a bd
       0.025126573 -0.024490798 0.02333621 -0.04155411
000140 23 aa 92 b9 94 3e 03 3d 7d ac e3 bb b7 f5 15 bd
       -0.00027974052 0.0320421 -0.0069480524 -0.036611285
000150 7a 3c 57 bc e6 c2 d0 3c e5 24 ad bc 88 f9 05 bd
       -0.013136977 0.02548356 -0.021135757 -0.032708675
000160 0b 5b 95 bc 90 77 9f bc ac 3c e4 3c 77 7b 94 3a
       -0.01823189 -0.019466192 0.027860962 0.0011328299
000170 22 de 0e 3d 64 c5 e8 bc f6 c0 2d bd 21 50 1e bd
       0.03487981 -0.028414436 -0.04242035 -0.038650636
000180 0c b7 f1 bc 74 13 7c bc 3d 85 ef bc 82 25 25 bd
       -0.029506229 -0.015385497 -0.029238338 -0.040318973
000190 61 35 43 bc 82 0d ec bc 1b ea c0 bc e2 eb b2 3c
       -0.011914582 -0.028815035 -0.02354913 0.021840993
0001a0 d8 00 55 bc e3 6b ee 3c 37 2d d0 3c 63 30 6c bb
       -0.013000689 0.029104179 0.025412185 -0.0036039583
0001b0 af 65 a3 bc fa 40 d8 3a 1d c8 f6 bc a6 df 3b 3d
       -0.019945947 0.0016498857 -0.030124718 0.045867585
0001c0 31 55 21 3c ef 08 b8 bc de ee 89 bc 0c b3 02 bd
       0.009846971 -0.022465197 -0.016837534 -0.031909034
0001d0 dd 5b 28 3d a9 92 49 3c 49 61 ac bc 2f e0 2b 3c
       0.041103233 0.012303033 -0.021042483 0.010490461
0001e0 43 ae 14 3d 37 9d af bc 3f 35 9d 3c b7 67 6d bc
       0.036299 -0.02143727 0.019190429 -0.01449006
0001f0 6a c6 2a 3d 0d ae 25 3d e2 fe 87 3c 22 1a f4 bc
       0.04169313 0.04044919 0.01660103 -0.029797617
000200 3a e9 b8 3c 22 5e 96 bc 40 4c 9e bb 88 c9 51 b9
       0.022572149 -0.018355433 -0.004830867 -0.0002000687
000210 8d 70 d6 3c 73 20 0a 3d ad 1f 24 bd 61 53 80 b9
       0.026176715 0.033722352 -0.04006927 -0.00024476185
000220 93 98 bb bb 78 04 fa bb 09 1a 31 bc 56 c1 4b 3c
       -0.0057249754 -0.0076299272 -0.01080943 0.012436232
000230 b8 be f9 bc dd fe 86 bc 97 b4 0b 3d 18 06 15 bc
       -0.03048645 -0.01647895 0.03410777 -0.009095691
000240 10 09 af 3b 9d e8 a3 3c 05 1c a4 bc 29 2e 3c bc
       0.0053416565 0.02000838 -0.020032892 -0.011485615
000250 47 03 6e 3c 3e 39 ba bc 10 68 22 3d 8f fa 9a bc
       0.014527149 -0.022732373 0.039650023 -0.018918304
000260 ed f5 4c 3c ad 9a 96 bb 50 0b e8 3a bd d4 59 3c
       0.012509805 -0.0045960755 0.0017703567 0.01329535
000270 4b 83 05 3d 40 31 3e bc 12 22 0b 3d cd f6 b2 3c
       0.032595914 -0.011608422 0.03396804 0.0218462
000280 80 b2 cf bc 49 95 bd 3c bb a1 97 3c c1 e2 1a bc
       -0.02535367 0.023142474 0.018509736 -0.009453476
000290 a7 a7 ae 3b 8e 17 b3 bc c3 72 20 bd 84 ac ae 3c
       0.0053300443 -0.021861818 -0.039171945 0.021322496
0002a0 a7 ba 97 bc 5e 6d ff 3c 87 13 a6 bb 50 c2 a5 bb
       -0.01852162 0.03118008 -0.005068246 -0.0050585642
0002b0 3a a8 7f bc 32 6d aa bc a1 8e 25 bd ba 1a 89 3c
       -0.015604073 -0.020804022 -0.040419225 0.016736377
0002c0 2c 04 8c bc d0 51 33 bd 90 73 1f bd eb cb 18 3c
       -0.017091833 -0.043779194 -0.03892857 0.009325962
0002d0 38 2e 2c bd d3 c5 2d bd c3 88 c7 3c b0 2f bf bc
       -0.042036265 -0.042424988 0.024357205 -0.023338169
0002e0 fe e6 07 3c 43 01 01 bd 8e 42 df 3c 0b ff d2 3c
       0.008294819 -0.031495344 0.027253415 0.02575638
0002f0 09 01 03 3d c8 e9 1e bc 14 6b e2 3c 55 92 16 3c
       0.03198341 -0.0096992925 0.02763895 0.009190162
000300 f7 82 c4 3c b1 11 32 bd 42 18 bc 3c 88 61 30 bd
       0.02398823 -0.043473903 0.022960786 -0.043061763
000310 99 3a 7f bc 72 74 52 bc f6 06 7a bb a8 69 93 3b
       -0.015577936 -0.012845146 -0.0038151122 0.004498679
000320 c0 24 ae 3c cf d8 5f bc c9 60 b4 3b 0f e7 22 3d
       0.021257758 -0.013662531 0.0055047018 0.039771136
000330 4f 18 1f 3a 3c 6d e6 bc 34 a2 b7 3c b5 f7 d0 3b
       0.0006068991 -0.028128259 0.022416212 0.006377185
000340 9d 23 f6 bc 39 07 cc 3c ea 7a 9f 3c 56 54 90 bc
       -0.030046279 0.024905788 0.01946779 -0.01761834
000350 36 06 94 bc 09 90 d0 3c c7 f1 c2 3a 00 f0 49 bb
       -0.018069368 0.025459306 0.0014873081 -0.0030813217
000360 85 32 ce 3b df 0f 4f 3d b5 6a 23 3d 4c 88 97 bc
       0.0062926435 0.050552245 0.039896686 -0.018497609
000370 e8 3d d6 3c 78 f2 f0 bc b0 e4 a1 3c 1c 1e 07 3d
       0.026152566 -0.029412493 0.019762367 0.0329877
000380 2f 0a bb 3c e1 92 a6 bc a6 ae 31 bc 53 2b a7 bb
       0.022832004 -0.02033371 -0.010844862 -0.0051016
000390 e0 b1 f1 3c ff d8 89 bc fa d5 8b bc 3a 62 2c 3c
       0.029503763 -0.016827105 -0.017069805 0.010521466
0003a0 6c 41 1b 3d ec 65 29 3d 04 f8 1a 3d 13 d3 f6 bc
       0.037904188 0.041356966 0.037834182 -0.030129945
0003b0 ab 04 19 3d 20 e0 75 bc f8 4a 52 3c 1c 7e d5 3b
       0.037357967 -0.015007049 0.012835257 0.0065152775
0003c0 95 35 49 ba d6 74 a3 3c 4d 41 9b 3b 8b 9e 0f 39
       -0.0007675526 0.019953173 0.004738009 0.00013696605
0003d0 89 c8 a5 bc 03 13 53 3b 2c a7 c8 bb fa 28 bb bc
       -0.020237224 0.0032207377 -0.006123444 -0.022846688
0003e0 8d d7 0e 3d a6 6e 80 bc dd a5 db 3b 45 02 56 3c
       0.034873534 -0.015677761 0.006703122 0.013062065
0003f0 b5 cc 71 3b 99 b7 58 bc f8 d1 f5 3c d9 33 03 bd
       0.0036895697 -0.013227367 0.030007347 -0.032031868

bias f4 [128]
000000 69 2e 88 bb 80 a5 a3 bc e7 a3 c8 bb df fe bc bb
       -0.004155923 -0.019976377 -0.0061230543 -0.0057676877
000010 8c b8 b8 3c 1f ae 8d bc fd 9b e5 3b ab 8b bc bc
       0.022548936 -0.017294941 0.0070071206 -0.023015818
000020 25 d1 9c 3c ba 5e 02 bd 39 b2 ee 3b 43 d6 e4 ba
       0.019142697 -0.03182862 0.0072844294 -0.0017458874
000030 d5 34 68 3c 0f f9 2b bc 79 75 58 3c aa b0 0b 3d
       0.014172752 -0.010496392 0.013211601 0.034104027
000040 e8 18 de bc f6 9c 0a 3d 92 9b 1a 3d 94 8a bc bc
       -0.027111486 0.033841096 0.03774602 -0.023015298
000050 84 84 f2 bc 92 0e 8d bc 36 47 18 bd b3 c4 00 3d
       -0.029604204 -0.017218862 -0.037177287 0.031437587
000060 b3 fa 9a bc f5 2f 6e bb 00 89 7c bc d5 bb 22 3d
       -0.01891837 -0.0036344503 -0.015413523 0.03972991
000070 4b 66 15 3b 8b ec e6 3c 1b 8a 0a bc d8 53 ee 3c
       0.0022796567 0.028188964 -0.0084557785 0.029092714
000080 7e 93 21 3c bd e2 9f bc 64 4b 24 3d 47 89 f1 3c
       0.009861825 -0.019517297 0.04011096 0.029484404
000090 6d 05 2e 3c 0b 84 1c 3c 0d 5f 11 bd 0f 7b d8 bc
       0.010621411 0.009552966 -0.035491038 -0.026425866
0000a0 3b 2b ef bc df 76 1e 3d a6 bc 01 3d 5a 46 02 3d
       -0.029195419 0.038687583 0.03167405 0.031805374
0000b0 ea d2 f1 bc 5e cd b0 bc 49 0f c9 bc e4 02 94 3c
       -0.029519517 -0.021582302 -0.024543421 0.018067785
0000c0 c6 f7 1a bd c3 4c cf 3c 66 cb 91 bc a3 ab 18 bd
       -0.03783395 0.025305158 -0.017797183 -0.03727306
0000d0 ce 87 a6 bc 02 46 27 bc 54 69 0d 3d f7 fe 0d bd
       -0.020328429 -0.010209562 0.034524277 -0.03466698
0000e0 4c 38 1a bd 9c 87 fa bb d7 ff b7 bc 6b f4 8f 3c
       -0.037651345 -0.0076455604 -0.022460861 0.017572602
0000f0 36 fc da bc b0 64 c7 3c 69 98 e3 3c 7c 80 24 bd
       -0.026731592 0.024340004 0.027782636 -0.040161595
000100 6b db 6e bc 80 a1 54 bc 4e fb 4d bc 45 55 e7 3b
       -0.0145786805 -0.012977958 -0.012572123 0.0070597255
000110 55 dc 9a 3c 8a 1e b1 3c 66 15 f8 bc 23 7d d8 bc
       0.01890389 0.021621007 -0.030283641 -0.026426857
000120 78 28 73 3c 6b 68 3a 3c 76 8c c3 3c 22 45 b8 3c
       0.0148411915 0.011377434 0.023870688 0.022493903
000130 a5 89 0b bd 3b d3 e1 3c b7 6e 29 bd 81 a9 5c 3c
       -0.034066815 0.027566543 -0.04136535 0.013468147
000140 03 f3 54 bb 17 28 ac 3c ca d9 f0 bc 32 e4 fa 3c
       -0.003249348 0.02101521 -0.029400725 0.03062639
000150 bd 3e 86 bc 2f ea 23 3d e0 bf 25 3c 0c eb 76 bc
       -0.016387338 0.040018257 0.010116547 -0.015070688
000160 76 f0 af bc 1a 78 ed bc b9 f4 0a 3c ce 77 19 3d
       -0.021476965 -0.028987933 0.008481198 0.03746777
000170 9a 39 87 3c 42 d0 0c bc 4b 93 0b 3d 39 dc a2 3c
       0.016506959 -0.008594574 0.034076016 0.019880401
000180 47 13 cf bb 54 5a 01 bc 7c b3 27 3d 43 4b 84 3c
       -0.0063194367 -0.007895071 0.040942654 0.016149169
000190 d4 0a ac 3b 26 8d 66 3c 1c a3 2b bd de de 8e 3b
       0.0052503143 0.014071738 -0.0419036 0.004360064
0001a0 04 fc 2c 3d 5d 93 a6 bc 58 9e 90 bc 95 0d 04 bd
       0.04223253 -0.02033394 -0.01765363 -0.032239515
0001b0 10 a0 2e bc d0 43 01 3c 0a 7b 7f bb 66 3d 91 3c
       -0.010658279 0.007889703 -0.003898325 0.017729472
0001c0 9e f5 56 3b 55 98 0a 3d e3 10 e9 bc 02 a3 96 3b
       0.0032800208 0.03383668 -0.028450435 0.0045970688
0001d0 83 0a c3 bc 24 ea 71 3c 81 56 1f 3d 62 00 19 bd
       -0.023808723 0.014765296 0.038900856 -0.03735388
0001e0 4a 8e ff 3c f4 36 22 bd d3 ad 04 bd 1b 0c 91 3c
       0.031195778 -0.03960319 -0.032392334 0.017705968
0001f0 2a e1 eb bc 4d 4d 3c 3c 74 d0 aa bb 04 51 20 3d
       -0.02879389 0.011493039 -0.005212838 0.039139763

weight f4 [128]
000000 95 72 81 3f b3 61 80 3f 11 96 7e 3f fb 78 81 3f
       1.0113093 1.0029815 0.99447733 1.0115045
000010 b6 2f 7d 3f a7 5c 7f 3f ba 35 80 3f 47 68 81 3f
       0.98900926 0.9975075 1.0016396 1.0109948
000020 ff 0b 7c 3f c9 ad 7e 3f 68 49 7f 3f b3 93 81 3f
       0.98455805 0.99483925 0.99721384 1.0123199
000030 63 9b 7f 3f 2b 78 7e 3f d9 02 7d 3f 8f 35 7f 3f
       0.99846476 0.9940211 0.9883247 0.996911
000040 49 98 80 3f 67 1e 80 3f da 56 80 3f 1c 85 80 3f
       1.0046474 1.0009278 1.0026505 1.0040622
000050 1b 5c 80 3f 4c d7 7e 3f ef 19 7e 3f b6 04 80 3f
       1.0028108 0.99547267 0.9925832 1.0001438
000060 1a c5 80 3f 34 3c 80 3f f3 84 7f 3f cd c6 81 3f
       1.0060151 1.0018373 0.9981224 1.0138794
000070 29 02 80 3f cd 3b 82 3f f7 15 7d 3f 90 53 81 3f
       1.0000659 1.01745 0.9886164 1.0103626
000080 b0 be 7e 3f fc db 7d 3f e2 dd 7f 3f 1a 11 7d 3f
       0.99509716 0.99163795 0.9994794 0.9885422
000090 a0 3b 80 3f 45 82 80 3f a7 96 80 3f aa 3a 80 3f
       1.0018196 1.0039755 1.0045975 1.0017903
0000a0 c6 a0 80 3f de 2b 7e 3f 33 35 7f 3f 43 52 80 3f
       1.0049064 0.99285686 0.9969055 1.0025104
0000b0 f4 1e 82 3f 26 12 7d 3f 6f 10 80 3f 98 02 7f 3f
       1.0165696 0.9885582 1.0005015 0.9961333
0000c0 94 b1 80 3f 28 e0 7d 3f f6 43 80 3f 90 40 82 3f
       1.0054193 0.9917016 1.002074 1.0175953
0000d0 ef fc 80 3f eb cf 7e 3f 29 fc 7f 3f 03 89 80 3f
       1.0077189 0.9953601 0.9999414 1.0041813
0000e0 7b b4 83 3f 57 54 7f 3f 47 5b 80 3f f8 75 80 3f
       1.0289453 0.9973807 1.0027856 1.0036001
0000f0 fa ab 7b 3f 41 85 81 3f c6 2a 80 3f 99 65 82 3f
       0.9830929 1.0118791 1.0013053 1.0187255
000100 15 d6 7d 3f 48 43 7e 3f 49 46 7e 3f b8 08 82 3f
       0.9915479 0.99321413 0.99325997 1.0158911
000110 77 c2 7f 3f a0 91 7d 3f 36 ed 7c 3f 15 b6 7d 3f
       0.99906105 0.9905033 0.98799455 0.9910596
000120 6d 52 80 3f a7 19 80 3f 83 15 7f 3f e5 ce 81 3f
       1.0025154 1.0007828 0.996422 1.0141264
000130 49 58 80 3f 1e 91 7f 3f 90 04 7f 3f d3 44 7d 3f
       1.0026942 0.99830806 0.99616337 0.9893314
000140 b8 11 81 3f bd c1 80 3f 85 26 80 3f b2 f4 7e 3f
       1.0083532 1.0059124 1.0011755 0.99592125
000150 27 c8 7b 3f 9e 5d 7c 3f ae 9d 81 3f 13 a4 7e 3f
       0.98352283 0.9858035 1.0126245 0.9946911
000160 f7 05 82 3f 75 49 7e 3f 7e 4d 80 3f e0 05 7f 3f
       1.015807 0.99330837 1.0023649 0.9961834
000170 0c 45 80 3f 2a ab 80 3f 1e 35 7f 3f 4f 97 80 3f
       1.0021071 1.0052235 0.99690425 1.0046176
000180 3b c0 7e 3f d2 7e 7e 3f 6c 6b 7e 3f 98 f8 81 3f
       0.9951207 0.9941226 0.9938266 1.015399
000190 10 fe 80 3f 57 90 80 3f 31 01 81 3f 2c b5 7e 3f
       1.0077534 1.0044049 1.0078489 0.99495196
0001a0 d8 2c 80 3f 6c fb 80 3f d7 30 7e 3f d6 01 80 3f
       1.0013685 1.0076728 0.99293274 1.000056
0001b0 f3 b8 80 3f 22 84 7e 3f 9a 7e 80 3f 7e e2 7e 3f
       1.0056442 0.9942037 1.0038636 0.9956435
0001c0 86 1d 81 3f f5 b8 81 3f 4d c2 80 3f 1a 9b 7f 3f
       1.0087135 1.013457 1.0059296 0.9984604
0001d0 da 64 80 3f 7a 87 80 3f 98 c3 7c 3f 40 b0 80 3f
       1.0030777 1.0041344 0.9873595 1.0053787
0001e0 59 a2 7e 3f 49 64 7e 3f ff 72 80 3f ab 5a 80 3f
       0.9946647 0.99371773 1.0035094 1.002767
0001f0 89 16 80 3f 7a bc 81 3f dd 6b 80 3f 4a de 7d 3f
       1.0006877 1.0135643 1.0032917 0.9916731

bias f4 [128]
000000 7c 3e 81 3b 27 dc 92 bc 8b b3 cd bc fc df 1a bb
       0.0039442163 -0.017927242 -0.025110027 -0.002363204
000010 c8 74 98 bc 9a 77 87 bc aa 37 ba bc 07 87 ff bb
       -0.018610373 -0.016536523 -0.02273162 -0.007798079
000020 11 10 ba bc 95 0f 93 bc 74 67 a5 bc 4f 6e 8a 3b
       -0.02271274 -0.017951766 -0.020190932 0.0042245756
000030 60 a9 32 bc fe e5 4e bb af f7 41 bc c3 a9 1e 3b
       -0.01090464 -0.0031570191 -0.0118388375 0.0024210073
000040 a5 59 33 bc ac db 0d bc a9 cc 9e bb a1 72 94 bb
       -0.010946666 -0.008658331 -0.0048461747 -0.0045302664
000050 ef 41 0a bc 25 c3 90 bb dd 52 cc bc 9b d9 b6 3b
       -0.008438571 -0.0044177943 -0.024941856 0.00558014
000060 e5 33 bb bb 81 e8 b6 b9 6e bd 74 bc 75 1e 51 ba
       -0.0057129734 -0.00034886974 -0.014937742 -0.0007977256
000070 ff 53 e6 bb 7c fd 86 bb 5e 78 83 bc 5a 3c d0 3b
       -0.007029056 -0.004119573 -0.016048606 0.0063548507
000080 0a e1 0a bc 17 de 2f bc a7 97 c5 ba e1 e1 44 bc
       -0.008476505 -0.010734103 -0.0015075103 -0.012016744
000090 08 09 8a bc 00 b5 12 3b 3a 68 0b bc 90 22 47 bb
       -0.01685001 0.0022385716 -0.008508736 -0.003038559
0000a0 41 d5 18 bc 72 36 ab bc 43 a1 ee bb e7 f0 9c bb
       -0.009328187 -0.020899985 -0.0072824075 -0.00478946
0000b0 cb c4 69 bc b6 f9 a1 bc c3 c0 fe bb 84 87 28 bc
       -0.0142681105 -0.019772392 -0.007774444 -0.010286216
0000c0 91 9b 42 bc a7 cb ae bc e8 25 a4 bb 45 c3 f5 3b
       -0.01187791 -0.021337343 -0.0050094016 0.0075000846
0000d0 7b fa b3 bb ec 98 f3 ba 8f 4b 31 3c 25 0a b9 bb
       -0.005492506 -0.0018585003 0.010821237 -0.0056469613
0000e0 39 30 38 3c 1b f9 0a ba 18 b2 d8 39 12 ef 86 bc
       0.011241966 -0.0005301402 0.0004133142 -0.01647142
0000f0 66 bc cf bc ef a8 d8 bb d8 fb 14 bc c4 55 e7 3b
       -0.02535839 -0.0066119353 -0.009093247 0.0070597846
000100 84 d1 fc bb cc e6 69 bc e3 cb 65 bc 11 04 b1 bb
       -0.007715406 -0.014276218 -0.014025661 -0.005402096
000110 63 82 07 bc b3 89 7b bc a9 42 88 bc c3 6a 9b bc
       -0.008270833 -0.015352654 -0.016633349 -0.018971806
000120 71 6d 1a bc 39 39 c2 bb a6 04 76 bc 53 99 be bb
       -0.009425507 -0.0059272316 -0.015015757 -0.0058166175
000130 f0 6a d2 3a e5 d6 26 b9 b1 5e 2c bc 05 62 8c bc
       0.0016053598 -0.00015911048 -0.010520623 -0.017136583
000140 ee 0e 24 3b dc e8 99 bc 23 88 ea bb b7 8d b6 bc
       0.0025033313 -0.018787794 -0.007157342 -0.022284372
000150 51 e2 3b bc c6 bb c8 bb 54 6d 3c 3c e2 64 9b bc
       -0.011467532 -0.0061259 0.011500675 -0.018969003
000160 9e f0 3f bc 60 32 41 bc 44 2c 9f 3a 0f cb 33 3b
       -0.011715082 -0.0117917955 0.001214393 0.0027434265
000170 56 cf 78 bc 42 72 31 bc 68 61 82 bb 37 d1 be bc
       -0.0151861515 -0.010830464 -0.003978897 -0.02329312
000180 a7 ed 09 bb bd 1b 23 bc 4e 08 36 bc 0c 40 f2 3b
       -0.0021046193 -0.009955344 -0.011110378 0.007392889
000190 d1 cf 35 bc b5 65 86 3b 28 d9 3e bc b7 f2 04 3c
       -0.011096911 0.00410148 -0.011648454 0.008114508
0001a0 56 1e 8d 3b 63 3a ae bb 9d bd bb bc f9 51 26 bc
       0.004306595 -0.005317019 -0.022917563 -0.01015138
0001b0 96 a6 23 bb 6a 92 88 bc e2 6d 1f bc c1 0d c7 bb
       -0.002497112 -0.016671378 -0.009730788 -0.0060746376
0001c0 70 7d 1c bc 90 7f 52 3b 38 ea 30 bb 5d e2 22 bb
       -0.009551391 0.003211949 -0.0026995074 -0.0024854161
0001d0 6a e9 56 bc f4 72 42 bc e3 d5 95 bc 7c a1 9c bb
       -0.013117174 -0.011868227 -0.018290466 -0.0047799926
0001e0 e1 ee 86 bc 5c 21 55 bc 9d be 48 bc 50 b6 61 bc
       -0.016471328 -0.013008442 -0.012252477 -0.013776377
0001f0 6a b2 5c bc 68 ee 8f bb da ed 4e 3b 95 3c cf bb
       -0.013470272 -0.004392434 0.0031574876 -0.0063243606

running_mean f4 [128]
000000 ff b6 43 be 5c 74 eb bd a0 5c 51 3f 5d b1 cc be
       -0.19112776 -0.11496803 0.8178196 -0.39979067
000010 f7 38 fd be 3c bd cd 3e 81 7e c4 bd b2 76 23 bf
       -0.49457523 0.40183437 -0.09594441 -0.6385299
000020 f0 cc 92 3f 25 fe 09 3e b3 5e 73 bd 9b 53 10 bf
       1.1468792 0.13475855 -0.059416484 -0.5637757
000030 10 42 ba be 6c 7a 49 be f4 fb e5 3d 2c c7 40 bf
       -0.36378527 -0.19675606 0.11229697 -0.7530391
000040 99 52 05 bf 5d 81 66 3b 33 54 4d be c2 21 1a bf
       -0.5207916 0.0035172321 -0.2005165 -0.6020776
000050 71 60 da 3e 09 64 9d bd 2a 5c 4a 3d 92 ab 9e be
       0.42651704 -0.07685096 0.0494043 -0.30990273
000060 11 23 93 3d a3 18 ea be 3f b6 ab be 97 9e b6 3e
       0.07184423 -0.4572192 -0.3353748 0.3566787
000070 24 ae 4b 3d ae 34 9b 3e fe b1 c7 3e f9 d4 13 3e
       0.04972662 0.3031363 0.39002985 0.14436711
000080 54 2b 2f 3e ca 91 96 bf cf f3 8c be 86 74 6d be
       0.17106372 -1.1763241 -0.2752976 -0.23188981
000090 95 28 9f be 17 cf 3e 3e ef 12 45 3e 70 34 ac 3e
       -0.3108565 0.18633686 0.19245504 0.33633757
0000a0 1f 27 b3 be b2 80 bb 3e ec 79 ca be 26 cc d6 be
       -0.34990785 0.36621624 -0.39546144 -0.41952628
0000b0 91 93 3f bf 89 e3 cf be 1b 3c 05 bd dc 79 6c bd
       -0.74834543 -0.40603283 -0.032528024 -0.0577334
0000c0 26 d8 97 be 48 1a cd be 68 e8 f8 be 42 31 a2 be
       -0.29657096 -0.40059114 -0.48614812 -0.31678206
0000d0 9c 3f 52 be 09 b9 02 3f e1 65 42 3d 20 f0 55 bf
       -0.20532078 0.5106359 0.04746044 -0.83569527
0000e0 c4 4a 27 bf 4f da 2c 3e 11 7f 0e 3e 8e f8 2f be
       -0.6534846 0.16880153 0.1391566 -0.1718466
0000f0 c5 b7 a2 be 26 6b 26 bf ad 77 a5 bd c5 2e b3 be
       -0.3178083 -0.65007246 -0.08079467 -0.3499662
000100 3b 18 36 3f 70 a3 5d be c0 67 0c 3f 0d c1 26 3e
       0.7113072 -0.21644378 0.5484581 0.1628458
000110 58 7f 21 be 9f a4 63 3d da de 8f be 33 d4 9e 3e
       -0.15771234 0.055576917 -0.2809971 0.3102127
000120 e9 8d 1a bf 81 70 94 3e 66 f7 f7 be 67 e7 83 bf
       -0.6037279 0.28992084 -0.48430938 -1.0304993
000130 0c 6d 36 bf 2d 75 2d 3e 48 5a 29 bf 8b f7 c8 3e
       -0.7126014 0.1693923 -0.66153383 0.3925136
000140 2a 58 27 bf a9 42 26 3e ba 56 9d bf c6 d2 f7 bd
       -0.653689 0.16236366 -1.2292092 -0.12100749
000150 46 22 71 3f 2e 34 e1 3e ff ea 43 3d f9 53 68 be
       0.9419292 0.43985122 0.04783153 -0.22688283
000160 be 00 48 bf 28 14 35 3c 54 5d 00 be 0a 1c 92 bd
       -0.7812613 0.011052169 -0.12535602 -0.07134254
000170 15 e6 08 bf 3c df 57 bd ad e8 4a be 2d 38 33 3f
       -0.5347608 -0.052703127 -0.19815321 0.7000759
000180 a0 ca 0c bf 54 75 ac 3d 3d e8 05 3e 80 00 60 be
       -0.5499668 0.08420816 0.13076873 -0.2187519
000190 81 83 44 be 99 2d 13 bf 45 03 85 bc fd f4 0d be
       -0.1919079 -0.5749145 -0.01623691 -0.13862987
0001a0 23 a9 14 3f 0b e4 6e bf b2 c0 6d bc 69 a7 28 3f
       0.5807058 -0.93316716 -0.014511274 0.6588045
0001b0 97 05 1d bf ec 0b 64 bc 23 cd c6 3e 28 b0 6a 3e
       -0.61336654 -0.013918858 0.38828382 0.22918761
0001c0 c3 85 9a bf 4d 92 4c be 46 a5 00 bf bd f6 20 bf
       -1.2072071 -0.19977684 -0.5025219 -0.6287649
0001d0 8a 45 29 be 92 75 16 3e be 3a 85 3f 11 35 9f 3e
       -0.16530433 0.14693287 1.0408552 0.31095174
0001e0 ad c4 7a 3f cf 8f 2f 3f e2 cb 13 be 2b f0 f8 3e
       0.97956353 0.6857881 -0.14433244 0.48620734
0001f0 32 7a c4 be 00 38 f0 3e 1c 86 8e be c2 92 db bd
       -0.38374478 0.46917725 -0.27836692 -0.10721351
